…
--- [START 2017-10-11 09:58:12] ----------------------------------------------------------------

** some experiment setting **
	SEED         = 1507687091
	PROJECT_PATH = /home/ck/project/build/dummy-00
	out_dir      = /home/ck/project/results/excited-inception3-180-02c
	pretrained_file    = /home/ck/project/results/inception3-180-02a/checkpoint/00049000_model.pth
	initial_checkpoint = /home/ck/project/results/excited-inception3-180-02b/checkpoint/00039000_model.pth

** net setting **
<class 'net.model.cdiscount.excited_inception_v3.SEInception3'>


SEInception3 (
  (Conv2d_1a_3x3): BasicConv2d (
    (conv): Conv2d(3, 32, kernel_size=(3, 3), stride=(2, 2), bias=False)
    (bn): BatchNorm2d(32, eps=0.001, momentum=0.1, affine=True)
  )
  (Conv2d_2a_3x3): BasicConv2d (
    (conv): Conv2d(32, 32, kernel_size=(3, 3), stride=(1, 1), bias=False)
    (bn): BatchNorm2d(32, eps=0.001, momentum=0.1, affine=True)
  )
  (Conv2d_2b_3x3): BasicConv2d (
    (conv): Conv2d(32, 64, kernel_size=(3, 3), stride=(1, 1), padding=(1, 1), bias=False)
    (bn): BatchNorm2d(64, eps=0.001, momentum=0.1, affine=True)
  )
  (Conv2d_3b_1x1): BasicConv2d (
    (conv): Conv2d(64, 80, kernel_size=(1, 1), stride=(1, 1), bias=False)
    (bn): BatchNorm2d(80, eps=0.001, momentum=0.1, affine=True)
  )
  (Conv2d_4a_3x3): BasicConv2d (
    (conv): Conv2d(80, 192, kernel_size=(3, 3), stride=(1, 1), bias=False)
    (bn): BatchNorm2d(192, eps=0.001, momentum=0.1, affine=True)
  )
  (Mixed_5b): InceptionA (
    (branch1x1): BasicConv2d (
      (conv): Conv2d(192, 64, kernel_size=(1, 1), stride=(1, 1), bias=False)
      (bn): BatchNorm2d(64, eps=0.001, momentum=0.1, affine=True)
    )
    (branch5x5_1): BasicConv2d (
      (conv): Conv2d(192, 48, kernel_size=(1, 1), stride=(1, 1), bias=False)
      (bn): BatchNorm2d(48, eps=0.001, momentum=0.1, affine=True)
    )
    (branch5x5_2): BasicConv2d (
      (conv): Conv2d(48, 64, kernel_size=(5, 5), stride=(1, 1), padding=(2, 2), bias=False)
      (bn): BatchNorm2d(64, eps=0.001, momentum=0.1, affine=True)
    )
    (branch3x3dbl_1): BasicConv2d (
      (conv): Conv2d(192, 64, kernel_size=(1, 1), stride=(1, 1), bias=False)
      (bn): BatchNorm2d(64, eps=0.001, momentum=0.1, affine=True)
    )
    (branch3x3dbl_2): BasicConv2d (
      (conv): Conv2d(64, 96, kernel_size=(3, 3), stride=(1, 1), padding=(1, 1), bias=False)
      (bn): BatchNorm2d(96, eps=0.001, momentum=0.1, affine=True)
    )
    (branch3x3dbl_3): BasicConv2d (
      (conv): Conv2d(96, 96, kernel_size=(3, 3), stride=(1, 1), padding=(1, 1), bias=False)
      (bn): BatchNorm2d(96, eps=0.001, momentum=0.1, affine=True)
    )
    (branch_pool): BasicConv2d (
      (conv): Conv2d(192, 32, kernel_size=(1, 1), stride=(1, 1), bias=False)
      (bn): BatchNorm2d(32, eps=0.001, momentum=0.1, affine=True)
    )
    (SELayer): SELayer (
      (avg_pool): AdaptiveAvgPool2d (output_size=1)
      (fc): Sequential (
        (0): Linear (192 -> 16)
        (1): ReLU (inplace)
        (2): Linear (16 -> 192)
        (3): Sigmoid ()
      )
    )
  )
  (Mixed_5c): InceptionA (
    (branch1x1): BasicConv2d (
      (conv): Conv2d(256, 64, kernel_size=(1, 1), stride=(1, 1), bias=False)
      (bn): BatchNorm2d(64, eps=0.001, momentum=0.1, affine=True)
    )
    (branch5x5_1): BasicConv2d (
      (conv): Conv2d(256, 48, kernel_size=(1, 1), stride=(1, 1), bias=False)
      (bn): BatchNorm2d(48, eps=0.001, momentum=0.1, affine=True)
    )
    (branch5x5_2): BasicConv2d (
      (conv): Conv2d(48, 64, kernel_size=(5, 5), stride=(1, 1), padding=(2, 2), bias=False)
      (bn): BatchNorm2d(64, eps=0.001, momentum=0.1, affine=True)
    )
    (branch3x3dbl_1): BasicConv2d (
      (conv): Conv2d(256, 64, kernel_size=(1, 1), stride=(1, 1), bias=False)
      (bn): BatchNorm2d(64, eps=0.001, momentum=0.1, affine=True)
    )
    (branch3x3dbl_2): BasicConv2d (
      (conv): Conv2d(64, 96, kernel_size=(3, 3), stride=(1, 1), padding=(1, 1), bias=False)
      (bn): BatchNorm2d(96, eps=0.001, momentum=0.1, affine=True)
    )
    (branch3x3dbl_3): BasicConv2d (
      (conv): Conv2d(96, 96, kernel_size=(3, 3), stride=(1, 1), padding=(1, 1), bias=False)
      (bn): BatchNorm2d(96, eps=0.001, momentum=0.1, affine=True)
    )
    (branch_pool): BasicConv2d (
      (conv): Conv2d(256, 64, kernel_size=(1, 1), stride=(1, 1), bias=False)
      (bn): BatchNorm2d(64, eps=0.001, momentum=0.1, affine=True)
    )
    (SELayer): SELayer (
      (avg_pool): AdaptiveAvgPool2d (output_size=1)
      (fc): Sequential (
        (0): Linear (256 -> 16)
        (1): ReLU (inplace)
        (2): Linear (16 -> 256)
        (3): Sigmoid ()
      )
    )
  )
  (Mixed_5d): InceptionA (
    (branch1x1): BasicConv2d (
      (conv): Conv2d(288, 64, kernel_size=(1, 1), stride=(1, 1), bias=False)
      (bn): BatchNorm2d(64, eps=0.001, momentum=0.1, affine=True)
    )
    (branch5x5_1): BasicConv2d (
      (conv): Conv2d(288, 48, kernel_size=(1, 1), stride=(1, 1), bias=False)
      (bn): BatchNorm2d(48, eps=0.001, momentum=0.1, affine=True)
    )
    (branch5x5_2): BasicConv2d (
      (conv): Conv2d(48, 64, kernel_size=(5, 5), stride=(1, 1), padding=(2, 2), bias=False)
      (bn): BatchNorm2d(64, eps=0.001, momentum=0.1, affine=True)
    )
    (branch3x3dbl_1): BasicConv2d (
      (conv): Conv2d(288, 64, kernel_size=(1, 1), stride=(1, 1), bias=False)
      (bn): BatchNorm2d(64, eps=0.001, momentum=0.1, affine=True)
    )
    (branch3x3dbl_2): BasicConv2d (
      (conv): Conv2d(64, 96, kernel_size=(3, 3), stride=(1, 1), padding=(1, 1), bias=False)
      (bn): BatchNorm2d(96, eps=0.001, momentum=0.1, affine=True)
    )
    (branch3x3dbl_3): BasicConv2d (
      (conv): Conv2d(96, 96, kernel_size=(3, 3), stride=(1, 1), padding=(1, 1), bias=False)
      (bn): BatchNorm2d(96, eps=0.001, momentum=0.1, affine=True)
    )
    (branch_pool): BasicConv2d (
      (conv): Conv2d(288, 64, kernel_size=(1, 1), stride=(1, 1), bias=False)
      (bn): BatchNorm2d(64, eps=0.001, momentum=0.1, affine=True)
    )
    (SELayer): SELayer (
      (avg_pool): AdaptiveAvgPool2d (output_size=1)
      (fc): Sequential (
        (0): Linear (288 -> 16)
        (1): ReLU (inplace)
        (2): Linear (16 -> 288)
        (3): Sigmoid ()
      )
    )
  )
  (Mixed_6a): InceptionB (
    (branch3x3): BasicConv2d (
      (conv): Conv2d(288, 384, kernel_size=(3, 3), stride=(2, 2), bias=False)
      (bn): BatchNorm2d(384, eps=0.001, momentum=0.1, affine=True)
    )
    (branch3x3dbl_1): BasicConv2d (
      (conv): Conv2d(288, 64, kernel_size=(1, 1), stride=(1, 1), bias=False)
      (bn): BatchNorm2d(64, eps=0.001, momentum=0.1, affine=True)
    )
    (branch3x3dbl_2): BasicConv2d (
      (conv): Conv2d(64, 96, kernel_size=(3, 3), stride=(1, 1), padding=(1, 1), bias=False)
      (bn): BatchNorm2d(96, eps=0.001, momentum=0.1, affine=True)
    )
    (branch3x3dbl_3): BasicConv2d (
      (conv): Conv2d(96, 96, kernel_size=(3, 3), stride=(2, 2), bias=False)
      (bn): BatchNorm2d(96, eps=0.001, momentum=0.1, affine=True)
    )
    (SELayer): SELayer (
      (avg_pool): AdaptiveAvgPool2d (output_size=1)
      (fc): Sequential (
        (0): Linear (288 -> 16)
        (1): ReLU (inplace)
        (2): Linear (16 -> 288)
        (3): Sigmoid ()
      )
    )
  )
  (Mixed_6b): InceptionC (
    (branch1x1): BasicConv2d (
      (conv): Conv2d(768, 192, kernel_size=(1, 1), stride=(1, 1), bias=False)
      (bn): BatchNorm2d(192, eps=0.001, momentum=0.1, affine=True)
    )
    (branch7x7_1): BasicConv2d (
      (conv): Conv2d(768, 128, kernel_size=(1, 1), stride=(1, 1), bias=False)
      (bn): BatchNorm2d(128, eps=0.001, momentum=0.1, affine=True)
    )
    (branch7x7_2): BasicConv2d (
      (conv): Conv2d(128, 128, kernel_size=(1, 7), stride=(1, 1), padding=(0, 3), bias=False)
      (bn): BatchNorm2d(128, eps=0.001, momentum=0.1, affine=True)
    )
    (branch7x7_3): BasicConv2d (
      (conv): Conv2d(128, 192, kernel_size=(7, 1), stride=(1, 1), padding=(3, 0), bias=False)
      (bn): BatchNorm2d(192, eps=0.001, momentum=0.1, affine=True)
    )
    (branch7x7dbl_1): BasicConv2d (
      (conv): Conv2d(768, 128, kernel_size=(1, 1), stride=(1, 1), bias=False)
      (bn): BatchNorm2d(128, eps=0.001, momentum=0.1, affine=True)
    )
    (branch7x7dbl_2): BasicConv2d (
      (conv): Conv2d(128, 128, kernel_size=(7, 1), stride=(1, 1), padding=(3, 0), bias=False)
      (bn): BatchNorm2d(128, eps=0.001, momentum=0.1, affine=True)
    )
    (branch7x7dbl_3): BasicConv2d (
      (conv): Conv2d(128, 128, kernel_size=(1, 7), stride=(1, 1), padding=(0, 3), bias=False)
      (bn): BatchNorm2d(128, eps=0.001, momentum=0.1, affine=True)
    )
    (branch7x7dbl_4): BasicConv2d (
      (conv): Conv2d(128, 128, kernel_size=(7, 1), stride=(1, 1), padding=(3, 0), bias=False)
      (bn): BatchNorm2d(128, eps=0.001, momentum=0.1, affine=True)
    )
    (branch7x7dbl_5): BasicConv2d (
      (conv): Conv2d(128, 192, kernel_size=(1, 7), stride=(1, 1), padding=(0, 3), bias=False)
      (bn): BatchNorm2d(192, eps=0.001, momentum=0.1, affine=True)
    )
    (branch_pool): BasicConv2d (
      (conv): Conv2d(768, 192, kernel_size=(1, 1), stride=(1, 1), bias=False)
      (bn): BatchNorm2d(192, eps=0.001, momentum=0.1, affine=True)
    )
    (SELayer): SELayer (
      (avg_pool): AdaptiveAvgPool2d (output_size=1)
      (fc): Sequential (
        (0): Linear (768 -> 16)
        (1): ReLU (inplace)
        (2): Linear (16 -> 768)
        (3): Sigmoid ()
      )
    )
  )
  (Mixed_6c): InceptionC (
    (branch1x1): BasicConv2d (
      (conv): Conv2d(768, 192, kernel_size=(1, 1), stride=(1, 1), bias=False)
      (bn): BatchNorm2d(192, eps=0.001, momentum=0.1, affine=True)
    )
    (branch7x7_1): BasicConv2d (
      (conv): Conv2d(768, 160, kernel_size=(1, 1), stride=(1, 1), bias=False)
      (bn): BatchNorm2d(160, eps=0.001, momentum=0.1, affine=True)
    )
    (branch7x7_2): BasicConv2d (
      (conv): Conv2d(160, 160, kernel_size=(1, 7), stride=(1, 1), padding=(0, 3), bias=False)
      (bn): BatchNorm2d(160, eps=0.001, momentum=0.1, affine=True)
    )
    (branch7x7_3): BasicConv2d (
      (conv): Conv2d(160, 192, kernel_size=(7, 1), stride=(1, 1), padding=(3, 0), bias=False)
      (bn): BatchNorm2d(192, eps=0.001, momentum=0.1, affine=True)
    )
    (branch7x7dbl_1): BasicConv2d (
      (conv): Conv2d(768, 160, kernel_size=(1, 1), stride=(1, 1), bias=False)
      (bn): BatchNorm2d(160, eps=0.001, momentum=0.1, affine=True)
    )
    (branch7x7dbl_2): BasicConv2d (
      (conv): Conv2d(160, 160, kernel_size=(7, 1), stride=(1, 1), padding=(3, 0), bias=False)
      (bn): BatchNorm2d(160, eps=0.001, momentum=0.1, affine=True)
    )
    (branch7x7dbl_3): BasicConv2d (
      (conv): Conv2d(160, 160, kernel_size=(1, 7), stride=(1, 1), padding=(0, 3), bias=False)
      (bn): BatchNorm2d(160, eps=0.001, momentum=0.1, affine=True)
    )
    (branch7x7dbl_4): BasicConv2d (
      (conv): Conv2d(160, 160, kernel_size=(7, 1), stride=(1, 1), padding=(3, 0), bias=False)
      (bn): BatchNorm2d(160, eps=0.001, momentum=0.1, affine=True)
    )
    (branch7x7dbl_5): BasicConv2d (
      (conv): Conv2d(160, 192, kernel_size=(1, 7), stride=(1, 1), padding=(0, 3), bias=False)
      (bn): BatchNorm2d(192, eps=0.001, momentum=0.1, affine=True)
    )
    (branch_pool): BasicConv2d (
      (conv): Conv2d(768, 192, kernel_size=(1, 1), stride=(1, 1), bias=False)
      (bn): BatchNorm2d(192, eps=0.001, momentum=0.1, affine=True)
    )
    (SELayer): SELayer (
      (avg_pool): AdaptiveAvgPool2d (output_size=1)
      (fc): Sequential (
        (0): Linear (768 -> 16)
        (1): ReLU (inplace)
        (2): Linear (16 -> 768)
        (3): Sigmoid ()
      )
    )
  )
  (Mixed_6d): InceptionC (
    (branch1x1): BasicConv2d (
      (conv): Conv2d(768, 192, kernel_size=(1, 1), stride=(1, 1), bias=False)
      (bn): BatchNorm2d(192, eps=0.001, momentum=0.1, affine=True)
    )
    (branch7x7_1): BasicConv2d (
      (conv): Conv2d(768, 160, kernel_size=(1, 1), stride=(1, 1), bias=False)
      (bn): BatchNorm2d(160, eps=0.001, momentum=0.1, affine=True)
    )
    (branch7x7_2): BasicConv2d (
      (conv): Conv2d(160, 160, kernel_size=(1, 7), stride=(1, 1), padding=(0, 3), bias=False)
      (bn): BatchNorm2d(160, eps=0.001, momentum=0.1, affine=True)
    )
    (branch7x7_3): BasicConv2d (
      (conv): Conv2d(160, 192, kernel_size=(7, 1), stride=(1, 1), padding=(3, 0), bias=False)
      (bn): BatchNorm2d(192, eps=0.001, momentum=0.1, affine=True)
    )
    (branch7x7dbl_1): BasicConv2d (
      (conv): Conv2d(768, 160, kernel_size=(1, 1), stride=(1, 1), bias=False)
      (bn): BatchNorm2d(160, eps=0.001, momentum=0.1, affine=True)
    )
    (branch7x7dbl_2): BasicConv2d (
      (conv): Conv2d(160, 160, kernel_size=(7, 1), stride=(1, 1), padding=(3, 0), bias=False)
      (bn): BatchNorm2d(160, eps=0.001, momentum=0.1, affine=True)
    )
    (branch7x7dbl_3): BasicConv2d (
      (conv): Conv2d(160, 160, kernel_size=(1, 7), stride=(1, 1), padding=(0, 3), bias=False)
      (bn): BatchNorm2d(160, eps=0.001, momentum=0.1, affine=True)
    )
    (branch7x7dbl_4): BasicConv2d (
      (conv): Conv2d(160, 160, kernel_size=(7, 1), stride=(1, 1), padding=(3, 0), bias=False)
      (bn): BatchNorm2d(160, eps=0.001, momentum=0.1, affine=True)
    )
    (branch7x7dbl_5): BasicConv2d (
      (conv): Conv2d(160, 192, kernel_size=(1, 7), stride=(1, 1), padding=(0, 3), bias=False)
      (bn): BatchNorm2d(192, eps=0.001, momentum=0.1, affine=True)
    )
    (branch_pool): BasicConv2d (
      (conv): Conv2d(768, 192, kernel_size=(1, 1), stride=(1, 1), bias=False)
      (bn): BatchNorm2d(192, eps=0.001, momentum=0.1, affine=True)
    )
    (SELayer): SELayer (
      (avg_pool): AdaptiveAvgPool2d (output_size=1)
      (fc): Sequential (
        (0): Linear (768 -> 16)
        (1): ReLU (inplace)
        (2): Linear (16 -> 768)
        (3): Sigmoid ()
      )
    )
  )
  (Mixed_6e): InceptionC (
    (branch1x1): BasicConv2d (
      (conv): Conv2d(768, 192, kernel_size=(1, 1), stride=(1, 1), bias=False)
      (bn): BatchNorm2d(192, eps=0.001, momentum=0.1, affine=True)
    )
    (branch7x7_1): BasicConv2d (
      (conv): Conv2d(768, 192, kernel_size=(1, 1), stride=(1, 1), bias=False)
      (bn): BatchNorm2d(192, eps=0.001, momentum=0.1, affine=True)
    )
    (branch7x7_2): BasicConv2d (
      (conv): Conv2d(192, 192, kernel_size=(1, 7), stride=(1, 1), padding=(0, 3), bias=False)
      (bn): BatchNorm2d(192, eps=0.001, momentum=0.1, affine=True)
    )
    (branch7x7_3): BasicConv2d (
      (conv): Conv2d(192, 192, kernel_size=(7, 1), stride=(1, 1), padding=(3, 0), bias=False)
      (bn): BatchNorm2d(192, eps=0.001, momentum=0.1, affine=True)
    )
    (branch7x7dbl_1): BasicConv2d (
      (conv): Conv2d(768, 192, kernel_size=(1, 1), stride=(1, 1), bias=False)
      (bn): BatchNorm2d(192, eps=0.001, momentum=0.1, affine=True)
    )
    (branch7x7dbl_2): BasicConv2d (
      (conv): Conv2d(192, 192, kernel_size=(7, 1), stride=(1, 1), padding=(3, 0), bias=False)
      (bn): BatchNorm2d(192, eps=0.001, momentum=0.1, affine=True)
    )
    (branch7x7dbl_3): BasicConv2d (
      (conv): Conv2d(192, 192, kernel_size=(1, 7), stride=(1, 1), padding=(0, 3), bias=False)
      (bn): BatchNorm2d(192, eps=0.001, momentum=0.1, affine=True)
    )
    (branch7x7dbl_4): BasicConv2d (
      (conv): Conv2d(192, 192, kernel_size=(7, 1), stride=(1, 1), padding=(3, 0), bias=False)
      (bn): BatchNorm2d(192, eps=0.001, momentum=0.1, affine=True)
    )
    (branch7x7dbl_5): BasicConv2d (
      (conv): Conv2d(192, 192, kernel_size=(1, 7), stride=(1, 1), padding=(0, 3), bias=False)
      (bn): BatchNorm2d(192, eps=0.001, momentum=0.1, affine=True)
    )
    (branch_pool): BasicConv2d (
      (conv): Conv2d(768, 192, kernel_size=(1, 1), stride=(1, 1), bias=False)
      (bn): BatchNorm2d(192, eps=0.001, momentum=0.1, affine=True)
    )
    (SELayer): SELayer (
      (avg_pool): AdaptiveAvgPool2d (output_size=1)
      (fc): Sequential (
        (0): Linear (768 -> 16)
        (1): ReLU (inplace)
        (2): Linear (16 -> 768)
        (3): Sigmoid ()
      )
    )
  )
  (Mixed_7a): InceptionD (
    (branch3x3_1): BasicConv2d (
      (conv): Conv2d(768, 192, kernel_size=(1, 1), stride=(1, 1), bias=False)
      (bn): BatchNorm2d(192, eps=0.001, momentum=0.1, affine=True)
    )
    (branch3x3_2): BasicConv2d (
      (conv): Conv2d(192, 320, kernel_size=(3, 3), stride=(2, 2), bias=False)
      (bn): BatchNorm2d(320, eps=0.001, momentum=0.1, affine=True)
    )
    (branch7x7x3_1): BasicConv2d (
      (conv): Conv2d(768, 192, kernel_size=(1, 1), stride=(1, 1), bias=False)
      (bn): BatchNorm2d(192, eps=0.001, momentum=0.1, affine=True)
    )
    (branch7x7x3_2): BasicConv2d (
      (conv): Conv2d(192, 192, kernel_size=(1, 7), stride=(1, 1), padding=(0, 3), bias=False)
      (bn): BatchNorm2d(192, eps=0.001, momentum=0.1, affine=True)
    )
    (branch7x7x3_3): BasicConv2d (
      (conv): Conv2d(192, 192, kernel_size=(7, 1), stride=(1, 1), padding=(3, 0), bias=False)
      (bn): BatchNorm2d(192, eps=0.001, momentum=0.1, affine=True)
    )
    (branch7x7x3_4): BasicConv2d (
      (conv): Conv2d(192, 192, kernel_size=(3, 3), stride=(2, 2), bias=False)
      (bn): BatchNorm2d(192, eps=0.001, momentum=0.1, affine=True)
    )
    (SELayer): SELayer (
      (avg_pool): AdaptiveAvgPool2d (output_size=1)
      (fc): Sequential (
        (0): Linear (768 -> 16)
        (1): ReLU (inplace)
        (2): Linear (16 -> 768)
        (3): Sigmoid ()
      )
    )
  )
  (Mixed_7b): InceptionE (
    (branch1x1): BasicConv2d (
      (conv): Conv2d(1280, 320, kernel_size=(1, 1), stride=(1, 1), bias=False)
      (bn): BatchNorm2d(320, eps=0.001, momentum=0.1, affine=True)
    )
    (branch3x3_1): BasicConv2d (
      (conv): Conv2d(1280, 384, kernel_size=(1, 1), stride=(1, 1), bias=False)
      (bn): BatchNorm2d(384, eps=0.001, momentum=0.1, affine=True)
    )
    (branch3x3_2a): BasicConv2d (
      (conv): Conv2d(384, 384, kernel_size=(1, 3), stride=(1, 1), padding=(0, 1), bias=False)
      (bn): BatchNorm2d(384, eps=0.001, momentum=0.1, affine=True)
    )
    (branch3x3_2b): BasicConv2d (
      (conv): Conv2d(384, 384, kernel_size=(3, 1), stride=(1, 1), padding=(1, 0), bias=False)
      (bn): BatchNorm2d(384, eps=0.001, momentum=0.1, affine=True)
    )
    (branch3x3dbl_1): BasicConv2d (
      (conv): Conv2d(1280, 448, kernel_size=(1, 1), stride=(1, 1), bias=False)
      (bn): BatchNorm2d(448, eps=0.001, momentum=0.1, affine=True)
    )
    (branch3x3dbl_2): BasicConv2d (
      (conv): Conv2d(448, 384, kernel_size=(3, 3), stride=(1, 1), padding=(1, 1), bias=False)
      (bn): BatchNorm2d(384, eps=0.001, momentum=0.1, affine=True)
    )
    (branch3x3dbl_3a): BasicConv2d (
      (conv): Conv2d(384, 384, kernel_size=(1, 3), stride=(1, 1), padding=(0, 1), bias=False)
      (bn): BatchNorm2d(384, eps=0.001, momentum=0.1, affine=True)
    )
    (branch3x3dbl_3b): BasicConv2d (
      (conv): Conv2d(384, 384, kernel_size=(3, 1), stride=(1, 1), padding=(1, 0), bias=False)
      (bn): BatchNorm2d(384, eps=0.001, momentum=0.1, affine=True)
    )
    (branch_pool): BasicConv2d (
      (conv): Conv2d(1280, 192, kernel_size=(1, 1), stride=(1, 1), bias=False)
      (bn): BatchNorm2d(192, eps=0.001, momentum=0.1, affine=True)
    )
    (SELayer): SELayer (
      (avg_pool): AdaptiveAvgPool2d (output_size=1)
      (fc): Sequential (
        (0): Linear (1280 -> 16)
        (1): ReLU (inplace)
        (2): Linear (16 -> 1280)
        (3): Sigmoid ()
      )
    )
  )
  (Mixed_7c): InceptionE (
    (branch1x1): BasicConv2d (
      (conv): Conv2d(2048, 320, kernel_size=(1, 1), stride=(1, 1), bias=False)
      (bn): BatchNorm2d(320, eps=0.001, momentum=0.1, affine=True)
    )
    (branch3x3_1): BasicConv2d (
      (conv): Conv2d(2048, 384, kernel_size=(1, 1), stride=(1, 1), bias=False)
      (bn): BatchNorm2d(384, eps=0.001, momentum=0.1, affine=True)
    )
    (branch3x3_2a): BasicConv2d (
      (conv): Conv2d(384, 384, kernel_size=(1, 3), stride=(1, 1), padding=(0, 1), bias=False)
      (bn): BatchNorm2d(384, eps=0.001, momentum=0.1, affine=True)
    )
    (branch3x3_2b): BasicConv2d (
      (conv): Conv2d(384, 384, kernel_size=(3, 1), stride=(1, 1), padding=(1, 0), bias=False)
      (bn): BatchNorm2d(384, eps=0.001, momentum=0.1, affine=True)
    )
    (branch3x3dbl_1): BasicConv2d (
      (conv): Conv2d(2048, 448, kernel_size=(1, 1), stride=(1, 1), bias=False)
      (bn): BatchNorm2d(448, eps=0.001, momentum=0.1, affine=True)
    )
    (branch3x3dbl_2): BasicConv2d (
      (conv): Conv2d(448, 384, kernel_size=(3, 3), stride=(1, 1), padding=(1, 1), bias=False)
      (bn): BatchNorm2d(384, eps=0.001, momentum=0.1, affine=True)
    )
    (branch3x3dbl_3a): BasicConv2d (
      (conv): Conv2d(384, 384, kernel_size=(1, 3), stride=(1, 1), padding=(0, 1), bias=False)
      (bn): BatchNorm2d(384, eps=0.001, momentum=0.1, affine=True)
    )
    (branch3x3dbl_3b): BasicConv2d (
      (conv): Conv2d(384, 384, kernel_size=(3, 1), stride=(1, 1), padding=(1, 0), bias=False)
      (bn): BatchNorm2d(384, eps=0.001, momentum=0.1, affine=True)
    )
    (branch_pool): BasicConv2d (
      (conv): Conv2d(2048, 192, kernel_size=(1, 1), stride=(1, 1), bias=False)
      (bn): BatchNorm2d(192, eps=0.001, momentum=0.1, affine=True)
    )
    (SELayer): SELayer (
      (avg_pool): AdaptiveAvgPool2d (output_size=1)
      (fc): Sequential (
        (0): Linear (2048 -> 16)
        (1): ReLU (inplace)
        (2): Linear (16 -> 2048)
        (3): Sigmoid ()
      )
    )
  )
  (fc): Linear (2048 -> 5270)
)
    def __init__(self, in_shape=(3,128,128), num_classes=1000 ):
        super(SEInception3, self).__init__()
…
