
--- [START 2017-10-11 20:49:40] ----------------------------------------------------------------

** some experiment setting **
	SEED         = 1507726180
	PROJECT_PATH = /home/ck/project/build/dummy-00
	out_dir      = /home/ck/project/results/excited-resnet50-180-00a

** net setting **
<class 'net.model.cdiscount.excited_resnet50.SEResNet50'>


SEResNet50 (
  (layer0): Sequential (
    (0): ConvBn2d (
      (conv): Conv2d(3, 64, kernel_size=(7, 7), stride=(2, 2), padding=(3, 3), bias=False)
      (bn): BatchNorm2d(64, eps=0.0001, momentum=0.1, affine=True)
    )
    (1): ReLU (inplace)
    (2): MaxPool2d (size=(3, 3), stride=(2, 2), padding=(1, 1), dilation=(1, 1))
  )
  (layer1): Sequential (
    (0): SEBottleneck (
      (conv_bn1): ConvBn2d (
        (conv): Conv2d(64, 64, kernel_size=(1, 1), stride=(1, 1), bias=False)
        (bn): BatchNorm2d(64, eps=0.0001, momentum=0.1, affine=True)
      )
      (conv_bn2): ConvBn2d (
        (conv): Conv2d(64, 64, kernel_size=(3, 3), stride=(1, 1), padding=(1, 1), bias=False)
        (bn): BatchNorm2d(64, eps=0.0001, momentum=0.1, affine=True)
      )
      (conv_bn3): ConvBn2d (
        (conv): Conv2d(64, 256, kernel_size=(1, 1), stride=(1, 1), bias=False)
        (bn): BatchNorm2d(256, eps=0.0001, momentum=0.1, affine=True)
      )
      (scale): SEScale (
        (fc1): Conv2d(256, 16, kernel_size=(1, 1), stride=(1, 1))
        (fc2): Conv2d(16, 256, kernel_size=(1, 1), stride=(1, 1))
      )
      (downsample): ConvBn2d (
        (conv): Conv2d(64, 256, kernel_size=(1, 1), stride=(1, 1), bias=False)
        (bn): BatchNorm2d(256, eps=0.0001, momentum=0.1, affine=True)
      )
    )
    (1): SEBottleneck (
      (conv_bn1): ConvBn2d (
        (conv): Conv2d(256, 64, kernel_size=(1, 1), stride=(1, 1), bias=False)
        (bn): BatchNorm2d(64, eps=0.0001, momentum=0.1, affine=True)
      )
      (conv_bn2): ConvBn2d (
        (conv): Conv2d(64, 64, kernel_size=(3, 3), stride=(1, 1), padding=(1, 1), bias=False)
        (bn): BatchNorm2d(64, eps=0.0001, momentum=0.1, affine=True)
      )
      (conv_bn3): ConvBn2d (
        (conv): Conv2d(64, 256, kernel_size=(1, 1), stride=(1, 1), bias=False)
        (bn): BatchNorm2d(256, eps=0.0001, momentum=0.1, affine=True)
      )
      (scale): SEScale (
        (fc1): Conv2d(256, 16, kernel_size=(1, 1), stride=(1, 1))
        (fc2): Conv2d(16, 256, kernel_size=(1, 1), stride=(1, 1))
      )
    )
    (2): SEBottleneck (
      (conv_bn1): ConvBn2d (
        (conv): Conv2d(256, 64, kernel_size=(1, 1), stride=(1, 1), bias=False)
        (bn): BatchNorm2d(64, eps=0.0001, momentum=0.1, affine=True)
      )
      (conv_bn2): ConvBn2d (
        (conv): Conv2d(64, 64, kernel_size=(3, 3), stride=(1, 1), padding=(1, 1), bias=False)
        (bn): BatchNorm2d(64, eps=0.0001, momentum=0.1, affine=True)
      )
      (conv_bn3): ConvBn2d (
        (conv): Conv2d(64, 256, kernel_size=(1, 1), stride=(1, 1), bias=False)
        (bn): BatchNorm2d(256, eps=0.0001, momentum=0.1, affine=True)
      )
      (scale): SEScale (
        (fc1): Conv2d(256, 16, kernel_size=(1, 1), stride=(1, 1))
        (fc2): Conv2d(16, 256, kernel_size=(1, 1), stride=(1, 1))
      )
    )
  )
  (layer2): Sequential (
    (0): SEBottleneck (
      (conv_bn1): ConvBn2d (
        (conv): Conv2d(256, 128, kernel_size=(1, 1), stride=(1, 1), bias=False)
        (bn): BatchNorm2d(128, eps=0.0001, momentum=0.1, affine=True)
      )
      (conv_bn2): ConvBn2d (
        (conv): Conv2d(128, 128, kernel_size=(3, 3), stride=(2, 2), padding=(1, 1), bias=False)
        (bn): BatchNorm2d(128, eps=0.0001, momentum=0.1, affine=True)
      )
      (conv_bn3): ConvBn2d (
        (conv): Conv2d(128, 512, kernel_size=(1, 1), stride=(1, 1), bias=False)
        (bn): BatchNorm2d(512, eps=0.0001, momentum=0.1, affine=True)
      )
      (scale): SEScale (
        (fc1): Conv2d(512, 32, kernel_size=(1, 1), stride=(1, 1))
        (fc2): Conv2d(32, 512, kernel_size=(1, 1), stride=(1, 1))
      )
      (downsample): ConvBn2d (
        (conv): Conv2d(256, 512, kernel_size=(1, 1), stride=(2, 2), bias=False)
        (bn): BatchNorm2d(512, eps=0.0001, momentum=0.1, affine=True)
      )
    )
    (1): SEBottleneck (
      (conv_bn1): ConvBn2d (
        (conv): Conv2d(512, 128, kernel_size=(1, 1), stride=(1, 1), bias=False)
        (bn): BatchNorm2d(128, eps=0.0001, momentum=0.1, affine=True)
      )
      (conv_bn2): ConvBn2d (
        (conv): Conv2d(128, 128, kernel_size=(3, 3), stride=(1, 1), padding=(1, 1), bias=False)
        (bn): BatchNorm2d(128, eps=0.0001, momentum=0.1, affine=True)
      )
      (conv_bn3): ConvBn2d (
        (conv): Conv2d(128, 512, kernel_size=(1, 1), stride=(1, 1), bias=False)
        (bn): BatchNorm2d(512, eps=0.0001, momentum=0.1, affine=True)
      )
      (scale): SEScale (
        (fc1): Conv2d(512, 32, kernel_size=(1, 1), stride=(1, 1))
        (fc2): Conv2d(32, 512, kernel_size=(1, 1), stride=(1, 1))
      )
    )
    (2): SEBottleneck (
      (conv_bn1): ConvBn2d (
        (conv): Conv2d(512, 128, kernel_size=(1, 1), stride=(1, 1), bias=False)
        (bn): BatchNorm2d(128, eps=0.0001, momentum=0.1, affine=True)
      )
      (conv_bn2): ConvBn2d (
        (conv): Conv2d(128, 128, kernel_size=(3, 3), stride=(1, 1), padding=(1, 1), bias=False)
        (bn): BatchNorm2d(128, eps=0.0001, momentum=0.1, affine=True)
      )
      (conv_bn3): ConvBn2d (
        (conv): Conv2d(128, 512, kernel_size=(1, 1), stride=(1, 1), bias=False)
        (bn): BatchNorm2d(512, eps=0.0001, momentum=0.1, affine=True)
      )
      (scale): SEScale (
        (fc1): Conv2d(512, 32, kernel_size=(1, 1), stride=(1, 1))
        (fc2): Conv2d(32, 512, kernel_size=(1, 1), stride=(1, 1))
      )
    )
    (3): SEBottleneck (
      (conv_bn1): ConvBn2d (
        (conv): Conv2d(512, 128, kernel_size=(1, 1), stride=(1, 1), bias=False)
        (bn): BatchNorm2d(128, eps=0.0001, momentum=0.1, affine=True)
      )
      (conv_bn2): ConvBn2d (
        (conv): Conv2d(128, 128, kernel_size=(3, 3), stride=(1, 1), padding=(1, 1), bias=False)
        (bn): BatchNorm2d(128, eps=0.0001, momentum=0.1, affine=True)
      )
      (conv_bn3): ConvBn2d (
        (conv): Conv2d(128, 512, kernel_size=(1, 1), stride=(1, 1), bias=False)
        (bn): BatchNorm2d(512, eps=0.0001, momentum=0.1, affine=True)
      )
      (scale): SEScale (
        (fc1): Conv2d(512, 32, kernel_size=(1, 1), stride=(1, 1))
        (fc2): Conv2d(32, 512, kernel_size=(1, 1), stride=(1, 1))
      )
    )
  )
  (layer3): Sequential (
    (0): SEBottleneck (
      (conv_bn1): ConvBn2d (
        (conv): Conv2d(512, 256, kernel_size=(1, 1), stride=(1, 1), bias=False)
        (bn): BatchNorm2d(256, eps=0.0001, momentum=0.1, affine=True)
      )
      (conv_bn2): ConvBn2d (
        (conv): Conv2d(256, 256, kernel_size=(3, 3), stride=(2, 2), padding=(1, 1), bias=False)
        (bn): BatchNorm2d(256, eps=0.0001, momentum=0.1, affine=True)
      )
      (conv_bn3): ConvBn2d (
        (conv): Conv2d(256, 1024, kernel_size=(1, 1), stride=(1, 1), bias=False)
        (bn): BatchNorm2d(1024, eps=0.0001, momentum=0.1, affine=True)
      )
      (scale): SEScale (
        (fc1): Conv2d(1024, 64, kernel_size=(1, 1), stride=(1, 1))
        (fc2): Conv2d(64, 1024, kernel_size=(1, 1), stride=(1, 1))
      )
      (downsample): ConvBn2d (
        (conv): Conv2d(512, 1024, kernel_size=(1, 1), stride=(2, 2), bias=False)
        (bn): BatchNorm2d(1024, eps=0.0001, momentum=0.1, affine=True)
      )
    )
    (1): SEBottleneck (
      (conv_bn1): ConvBn2d (
        (conv): Conv2d(1024, 256, kernel_size=(1, 1), stride=(1, 1), bias=False)
        (bn): BatchNorm2d(256, eps=0.0001, momentum=0.1, affine=True)
      )
      (conv_bn2): ConvBn2d (
        (conv): Conv2d(256, 256, kernel_size=(3, 3), stride=(1, 1), padding=(1, 1), bias=False)
        (bn): BatchNorm2d(256, eps=0.0001, momentum=0.1, affine=True)
      )
      (conv_bn3): ConvBn2d (
        (conv): Conv2d(256, 1024, kernel_size=(1, 1), stride=(1, 1), bias=False)
        (bn): BatchNorm2d(1024, eps=0.0001, momentum=0.1, affine=True)
      )
      (scale): SEScale (
        (fc1): Conv2d(1024, 64, kernel_size=(1, 1), stride=(1, 1))
        (fc2): Conv2d(64, 1024, kernel_size=(1, 1), stride=(1, 1))
      )
    )
    (2): SEBottleneck (
      (conv_bn1): ConvBn2d (
        (conv): Conv2d(1024, 256, kernel_size=(1, 1), stride=(1, 1), bias=False)
        (bn): BatchNorm2d(256, eps=0.0001, momentum=0.1, affine=True)
      )
      (conv_bn2): ConvBn2d (
        (conv): Conv2d(256, 256, kernel_size=(3, 3), stride=(1, 1), padding=(1, 1), bias=False)
        (bn): BatchNorm2d(256, eps=0.0001, momentum=0.1, affine=True)
      )
      (conv_bn3): ConvBn2d (
        (conv): Conv2d(256, 1024, kernel_size=(1, 1), stride=(1, 1), bias=False)
        (bn): BatchNorm2d(1024, eps=0.0001, momentum=0.1, affine=True)
      )
      (scale): SEScale (
        (fc1): Conv2d(1024, 64, kernel_size=(1, 1), stride=(1, 1))
        (fc2): Conv2d(64, 1024, kernel_size=(1, 1), stride=(1, 1))
      )
    )
    (3): SEBottleneck (
      (conv_bn1): ConvBn2d (
        (conv): Conv2d(1024, 256, kernel_size=(1, 1), stride=(1, 1), bias=False)
        (bn): BatchNorm2d(256, eps=0.0001, momentum=0.1, affine=True)
      )
      (conv_bn2): ConvBn2d (
        (conv): Conv2d(256, 256, kernel_size=(3, 3), stride=(1, 1), padding=(1, 1), bias=False)
        (bn): BatchNorm2d(256, eps=0.0001, momentum=0.1, affine=True)
      )
      (conv_bn3): ConvBn2d (
        (conv): Conv2d(256, 1024, kernel_size=(1, 1), stride=(1, 1), bias=False)
        (bn): BatchNorm2d(1024, eps=0.0001, momentum=0.1, affine=True)
      )
      (scale): SEScale (
        (fc1): Conv2d(1024, 64, kernel_size=(1, 1), stride=(1, 1))
        (fc2): Conv2d(64, 1024, kernel_size=(1, 1), stride=(1, 1))
      )
    )
    (4): SEBottleneck (
      (conv_bn1): ConvBn2d (
        (conv): Conv2d(1024, 256, kernel_size=(1, 1), stride=(1, 1), bias=False)
        (bn): BatchNorm2d(256, eps=0.0001, momentum=0.1, affine=True)
      )
      (conv_bn2): ConvBn2d (
        (conv): Conv2d(256, 256, kernel_size=(3, 3), stride=(1, 1), padding=(1, 1), bias=False)
        (bn): BatchNorm2d(256, eps=0.0001, momentum=0.1, affine=True)
      )
      (conv_bn3): ConvBn2d (
        (conv): Conv2d(256, 1024, kernel_size=(1, 1), stride=(1, 1), bias=False)
        (bn): BatchNorm2d(1024, eps=0.0001, momentum=0.1, affine=True)
      )
      (scale): SEScale (
        (fc1): Conv2d(1024, 64, kernel_size=(1, 1), stride=(1, 1))
        (fc2): Conv2d(64, 1024, kernel_size=(1, 1), stride=(1, 1))
      )
    )
    (5): SEBottleneck (
      (conv_bn1): ConvBn2d (
        (conv): Conv2d(1024, 256, kernel_size=(1, 1), stride=(1, 1), bias=False)
        (bn): BatchNorm2d(256, eps=0.0001, momentum=0.1, affine=True)
      )
      (conv_bn2): ConvBn2d (
        (conv): Conv2d(256, 256, kernel_size=(3, 3), stride=(1, 1), padding=(1, 1), bias=False)
        (bn): BatchNorm2d(256, eps=0.0001, momentum=0.1, affine=True)
      )
      (conv_bn3): ConvBn2d (
        (conv): Conv2d(256, 1024, kernel_size=(1, 1), stride=(1, 1), bias=False)
        (bn): BatchNorm2d(1024, eps=0.0001, momentum=0.1, affine=True)
      )
      (scale): SEScale (
        (fc1): Conv2d(1024, 64, kernel_size=(1, 1), stride=(1, 1))
        (fc2): Conv2d(64, 1024, kernel_size=(1, 1), stride=(1, 1))
      )
    )
  )
  (layer4): Sequential (
    (0): SEBottleneck (
      (conv_bn1): ConvBn2d (
        (conv): Conv2d(1024, 512, kernel_size=(1, 1), stride=(1, 1), bias=False)
        (bn): BatchNorm2d(512, eps=0.0001, momentum=0.1, affine=True)
      )
      (conv_bn2): ConvBn2d (
        (conv): Conv2d(512, 512, kernel_size=(3, 3), stride=(2, 2), padding=(1, 1), bias=False)
        (bn): BatchNorm2d(512, eps=0.0001, momentum=0.1, affine=True)
      )
      (conv_bn3): ConvBn2d (
        (conv): Conv2d(512, 2048, kernel_size=(1, 1), stride=(1, 1), bias=False)
        (bn): BatchNorm2d(2048, eps=0.0001, momentum=0.1, affine=True)
      )
      (scale): SEScale (
        (fc1): Conv2d(2048, 128, kernel_size=(1, 1), stride=(1, 1))
        (fc2): Conv2d(128, 2048, kernel_size=(1, 1), stride=(1, 1))
      )
      (downsample): ConvBn2d (
        (conv): Conv2d(1024, 2048, kernel_size=(1, 1), stride=(2, 2), bias=False)
        (bn): BatchNorm2d(2048, eps=0.0001, momentum=0.1, affine=True)
      )
    )
    (1): SEBottleneck (
      (conv_bn1): ConvBn2d (
        (conv): Conv2d(2048, 512, kernel_size=(1, 1), stride=(1, 1), bias=False)
        (bn): BatchNorm2d(512, eps=0.0001, momentum=0.1, affine=True)
      )
      (conv_bn2): ConvBn2d (
        (conv): Conv2d(512, 512, kernel_size=(3, 3), stride=(1, 1), padding=(1, 1), bias=False)
        (bn): BatchNorm2d(512, eps=0.0001, momentum=0.1, affine=True)
      )
      (conv_bn3): ConvBn2d (
        (conv): Conv2d(512, 2048, kernel_size=(1, 1), stride=(1, 1), bias=False)
        (bn): BatchNorm2d(2048, eps=0.0001, momentum=0.1, affine=True)
      )
      (scale): SEScale (
        (fc1): Conv2d(2048, 128, kernel_size=(1, 1), stride=(1, 1))
        (fc2): Conv2d(128, 2048, kernel_size=(1, 1), stride=(1, 1))
      )
    )
    (2): SEBottleneck (
      (conv_bn1): ConvBn2d (
        (conv): Conv2d(2048, 512, kernel_size=(1, 1), stride=(1, 1), bias=False)
        (bn): BatchNorm2d(512, eps=0.0001, momentum=0.1, affine=True)
      )
      (conv_bn2): ConvBn2d (
        (conv): Conv2d(512, 512, kernel_size=(3, 3), stride=(1, 1), padding=(1, 1), bias=False)
        (bn): BatchNorm2d(512, eps=0.0001, momentum=0.1, affine=True)
      )
      (conv_bn3): ConvBn2d (
        (conv): Conv2d(512, 2048, kernel_size=(1, 1), stride=(1, 1), bias=False)
        (bn): BatchNorm2d(2048, eps=0.0001, momentum=0.1, affine=True)
      )
      (scale): SEScale (
        (fc1): Conv2d(2048, 128, kernel_size=(1, 1), stride=(1, 1))
        (fc2): Conv2d(128, 2048, kernel_size=(1, 1), stride=(1, 1))
      )
    )
  )
  (fc): Linear (2048 -> 5270)
)
    def __init__(self, in_shape=(3,128,128), num_classes=5000 ):

        super(SEResNet50, self).__init__()
        in_channels, height, width = in_shape

        self.layer0 = nn.Sequential(
            ConvBn2d(in_channels, 64, kernel_size=7, stride=2, padding=3),
            nn.ReLU(inplace=True),
            nn.MaxPool2d(kernel_size=3, stride=2, padding=1),
…
